trained_models/OrVNet.pt (torch, 720464 bytes, 68 tensors)

message_passing.0.double_attn f4 [1, 8, 8]
000000 4b 7f f4 3d d4 a3 bc 3d 40 f7 ee 3d 33 6a 73 3f
       0.11938342 0.09210935 0.11668253 0.9508392
000010 89 89 fe bf 7c 73 ba bb dd f4 3a 3f a2 49 c0 bf
       -1.9885722 -0.0056900363 0.7302988 -1.5022471
000020 c6 8d c3 be 05 0d d9 3d 84 3f e3 3e c9 6b c1 bd
       -0.38194102 0.105981864 0.44384396 -0.094443865
000030 74 30 e5 3d 42 46 f5 be 80 a6 c5 3e c3 c4 b6 be
       0.11190882 -0.47905165 0.38603592 -0.35696992
000040 dd fb 8a be aa d8 30 bf 11 18 6a bf 1b 8f 8e be
       -0.2714528 -0.69080603 -0.9144297 -0.27843556
000050 36 36 25 bf 47 d2 33 3f 0a f8 5f 3f 4e 7c 03 3f
       -0.64535844 0.7024273 0.8748785 0.5136155
000060 d9 4d 84 bf a7 a2 39 bf d2 ad a0 3f dd c5 fb 3e
       -1.0336257 -0.7251381 1.2553046 0.49174395
000070 f7 2b 8d 3f 32 dc 64 3f 1d 90 1b 3f cf 0b 03 bf
       1.1029042 0.8939849 0.60766774 -0.51189893
000080 d9 4b 77 bf d7 7f 8e 3e 2e 7f c3 bf 51 c8 ec be
       -0.9660011 0.2783191 -1.5273187 -0.4624658
000090 9b 6c 1f c0 6b 1f 0b bf c8 94 3c c0 db f0 94 3e
       -2.4910038 -0.54344815 -2.946581 0.29090008
0000a0 25 25 71 c0 c1 4f 33 3f ce c2 e8 3f 9d 04 b5 be
       -3.7678921 0.7004357 1.818445 -0.35355082
0000b0 5c 56 f1 3f 86 39 b5 be c3 bf 10 c0 40 ec 3e bf
       1.885448 -0.3539545 -2.2617042 -0.7457924
0000c0 3e f3 00 c0 79 06 4a bf 3f f2 88 bf 44 3d 42 bc
       -2.0148463 -0.78916126 -1.0698928 -0.011855427
0000d0 d7 61 13 40 8f 31 36 bf ae 14 8b 40 f0 ec e7 bd
       2.3028467 -0.7116937 4.3462744 -0.11324489
0000e0 09 17 d9 bf c0 90 34 3f c7 db 12 3f 54 f4 4f 3f
       -1.6960155 0.7053337 0.57366604 0.8123219
0000f0 5f 31 e4 3e 19 8e 01 3f b3 ee 92 bf 29 62 7c bf
       0.44568917 0.5060745 -1.1479095 -0.9858728

message_passing.0.triple_attn f4 [1, 8, 8]
000000 8a 33 a3 3e 02 23 5f 3d 8f b5 59 3e 09 ad 49 bf
       0.3187526 0.054476745 0.21260665 -0.78779656
000010 50 09 eb be 07 52 87 3e 56 3c 6f bd 6f a3 15 3f
       -0.45905542 0.2642977 -0.05840715 0.58452505
000020 01 88 29 bf ab 73 b8 3e d2 97 9d 3f 63 5a e5 3d
       -0.6622315 0.36025748 1.2311957 0.111988805
000030 5a 3e 5a 3f f3 9e 12 3e 7b 58 d5 bf 11 a1 0f bf
       0.8525139 0.14318447 -1.6667627 -0.5610514
000040 3c d6 90 bf e0 a7 cb be 15 fc af be 40 1c 44 3f
       -1.1315379 -0.39776516 -0.3437201 0.76605606
000050 7a 2f 41 3c 66 af 9e 3e eb df 6a bf b5 12 17 bf
       0.011791104 0.30993193 -0.9174792 -0.5901292
000060 ca ef 7e bf 13 eb 0d bf 26 69 01 40 90 07 10 be
       -0.9958464 -0.5543682 2.0220428 -0.14065385
000070 36 05 50 bf fd 2d ff be 93 9b 27 3f 75 f6 f0 bc
       -0.8125795 -0.49839774 0.6547176 -0.029414395
000080 a5 af bc bf 0e 82 b1 3e a5 d7 a8 3d b5 1c f3 be
       -1.4741102 0.34669536 0.08244256 -0.4748284
000090 28 85 60 3e 90 4f 36 3f 33 52 a9 3f ef 40 36 3f
       0.21925795 0.7121515 1.322821 0.7119283
0000a0 64 93 05 c0 f9 7e 61 3d 8d 21 57 bf 75 fa 37 bf
       -2.087121 0.05505273 -0.8403557 -0.7186654
0000b0 b2 a8 a2 c0 b1 43 2a 3f c5 3c 9d 3f 0e 95 fd bd
       -5.0830927 0.6650954 1.228417 -0.123819456
0000c0 96 0e 24 40 04 66 c5 3e 9e be 9c bf ec 96 3a bf
       2.5633903 0.38554394 -1.2245672 -0.7288654
0000d0 4c a3 6a c0 75 c5 d5 bd 39 14 24 bf 25 8b 14 bf
       -3.6662169 -0.104380526 -0.6409336 -0.5802482
0000e0 64 80 99 c0 58 e6 3f 3f 68 e5 3e 40 f1 d1 f3 3e
       -4.7969227 0.7496085 2.9827518 0.4762111
0000f0 4a 89 05 40 3f 7b ee be 15 b4 ab c0 a2 60 a9 be
       2.0865045 -0.46578404 -5.3657327 -0.33081537

message_passing.0.quadra_attn f4 [1, 8, 8]
000000 4d 49 0b bf bd 93 82 bf d2 83 b6 bf 3b 4a dd bf
       -0.54408723 -1.0201336 -1.4258978 -1.7288278
000010 66 fc ec bf 57 f2 d5 3f f9 6d 89 3f 6a 33 ef bf
       -1.8514526 1.6714581 1.0736686 -1.8687565
000020 0e 1f 43 3f e0 fc 93 bf c3 f6 88 3f e4 8b 5d 3f
       0.7621926 -1.1561546 1.0700306 0.8654158
000030 bb 14 a5 3f 63 8b 9e 3f 56 b0 5b bf 55 fd 64 bf
       1.2896951 1.2386287 -0.8581594 -0.89449054
000040 95 52 b2 bf 5e 35 56 bf 0a c1 e2 3f 5c 74 83 bf
       -1.3931452 -0.8367518 1.7715161 -1.0269885
000050 6d a3 89 3f bd d2 1f bf 0b ba e3 3f 54 90 0c 3f
       1.0752999 -0.62430936 1.7791151 0.5490773
000060 bc 6c c7 bf 4b de 35 3f 3c f1 fe be 5b d2 67 3f
       -1.5580058 0.7104232 -0.49793422 0.9055535
000070 f4 80 f1 3f 97 e1 a4 bf 69 03 01 c0 70 79 28 3f
       1.8867478 -1.2881345 -2.0158331 0.658103
000080 29 81 05 40 3c 32 17 c0 03 b2 48 40 79 c8 5d bf
       2.0860083 -2.362441 3.135865 -0.8663402
000090 ca 12 f9 bf 0c 7c 80 3f 25 02 5b c0 0d 9b d3 3e
       -1.9458859 1.0037856 -3.422006 0.41329232
0000a0 6a 7b 8c 40 f8 10 49 3f 6a c1 b4 40 71 d1 73 bf
       4.390065 0.7854152 5.64861 -0.9524146
0000b0 70 58 29 c0 ec f6 3e bf a5 d3 89 40 81 cb 88 3f
       -2.6460228 -0.7459552 4.3070855 1.0687104
0000c0 aa cf 0f 40 4d e8 b0 bf a7 69 af bf f2 18 39 bf
       2.2470498 -1.3820893 -1.3704118 -0.7230369
0000d0 2b 7f 48 c0 a8 b8 be bf 8d 6f 7f 40 1b d6 48 3f
       -3.1327617 -1.4900103 3.9911835 0.784517
0000e0 dd 75 72 40 b8 1a 85 3f ce 5b 2b 40 12 68 10 c0
       3.7884438 1.0398779 2.6774783 -2.256352
0000f0 c7 eb 41 40 e4 b9 11 bf c5 eb 3c 40 b0 55 b5 3f
       3.0300157 -0.5692427 2.9518902 1.4166775

message_passing.0.bias f4 [64]
000000 cc 7c 7a 3e e4 d4 c4 3d 5b f3 3b 3e a9 b3 fa 3d
       0.24461669 0.09610918 0.18354551 0.12241299
000010 69 82 6f 3e 6f a6 10 bc 07 b5 60 be a5 c5 4d 3d
       0.23389591 -0.008828743 -0.21944056 0.050237317
000020 b9 f4 32 3e ee 56 af bc 42 2c 29 3e 79 fc 62 3e
       0.17476167 -0.021403756 0.1652079 0.22166623
000030 b6 d3 da bd 31 a4 2c 3d 43 a3 b2 3c 04 f4 7a 3e
       -0.10684912 0.042148773 0.021806365 0.24507147
000040 a3 be 17 3f fe cc f5 3e 29 8a 39 3e 6d 88 39 be
       0.59275264 0.4800796 0.1811911 -0.18118449
000050 f4 6f ab 3d d6 57 1f bf f4 af 62 3c d6 17 c5 bd
       0.08370963 -0.622434 0.013835896 -0.09623687
000060 97 66 8d 3e 22 dc e0 bc 0b e3 0b 3f df bd 16 bf
       0.27617332 -0.027448718 0.54643315 -0.5888347
000070 a8 2d b1 3e 52 26 fd 3d f6 09 b5 3e 1e 2a 0e 3e
       0.34605145 0.12360825 0.35359162 0.13883254
000080 66 2f df 3e 19 5d f6 3d 93 a6 26 3f 93 1e f2 3e
       0.4359085 0.12029476 0.6509792 0.4728895
000090 95 bd 9b 3d 58 f7 22 3f 16 88 53 3f da 7b be be
       0.07604519 0.63658667 0.82629526 -0.37203866
0000a0 d7 9e 42 3e 78 e8 58 bd ee d9 4d be b3 e3 3e 3f
       0.19005905 -0.052956074 -0.20102665 0.7456619
0000b0 62 41 da bc b0 8f 9a 3e 11 c0 6d 3e 7e 8b f7 3d
       -0.026642505 0.3018775 0.23217799 0.12087153
0000c0 6b 7c 90 be 95 82 03 3f 1b d4 50 3f 24 98 2a 3e
       -0.28219923 0.5137113 0.8157365 0.166596
0000d0 42 dd 3c 3f d5 66 c4 3e 81 07 cd 3e 50 f6 d1 3d
       0.7377511 0.38359705 0.40044788 0.102520585
0000e0 63 02 40 3f 71 53 d8 3c ed 4f 76 bd f1 b6 17 3e
       0.7500364 0.026406975 -0.060134817 0.1481588
0000f0 cf 5d 03 bc 73 be 2a be c1 0d 90 3f b9 ea f6 3e
       -0.008017971 -0.16674213 1.1254197 0.48225954

message_passing.0.linear_src.weight f4 [64, 64]
000000 0e 7f c8 3d 75 30 17 3e 89 10 4d 3e f0 74 7e 3c
       0.09789859 0.14764579 0.20025839 0.01553081
000010 80 90 5a bb db a4 4a be a6 05 9f bd 6a a3 8a bd
       -0.003335029 -0.1978945 -0.07764749 -0.0676945
000020 60 51 f2 3b 14 d4 44 3d 80 2e 99 bc e6 b6 9f bd
       0.0073949546 0.048053816 -0.01869893 -0.07798557
000030 2b eb 42 3e c1 46 0a be b0 3e 40 3c f7 62 e0 bd
       0.19035022 -0.13503553 0.011733696 -0.10956376
000040 a6 fb c2 3d 71 c1 36 3e 5a bc ba 3d 9c 42 12 be
       0.095206544 0.1784723 0.091179565 -0.14283222
000050 9c de 3d 3d 76 9b 54 be 17 3a 42 3e 06 44 91 3d
       0.046354875 -0.20762429 0.18967472 0.070930526
000060 1a 5f d5 bd f2 e9 f4 3d 50 cf b4 bd 80 46 91 ba
       -0.1041853 0.11958684 -0.08828604 -0.0011083633
000070 04 eb 15 3d 37 dc 27 be a5 5b 09 3e ea 36 48 be
       0.03660108 -0.16392599 0.13413866 -0.19552198
000080 86 75 46 be 50 af f3 bd e7 a4 18 3e 19 64 1f 3e
       -0.19380769 -0.118986726 0.14906655 0.15565528
000090 72 a4 b0 3d a5 5f 06 be c3 71 19 3e af 96 55 3e
       0.086251155 -0.13122423 0.14984803 0.20858262
0000a0 94 a7 5d 3d 34 88 51 bd 80 34 92 3b ea 6b 2f be
       0.054114893 -0.051155284 0.004461825 -0.1713101
0000b0 db 42 52 3e 66 af a1 bd 00 92 a5 b9 94 d4 50 3d
       0.20533316 -0.07894783 -0.0003158003 0.05098398
0000c0 70 06 9d bd 1c 0b 5b 3d 76 12 25 be ba 64 16 be
       -0.076672435 0.05347739 -0.16120324 -0.14686862
0000d0 a6 a7 a3 3d 7a 29 1a be 28 07 a5 3c dc 65 79 bd
       0.07990961 -0.15054885 0.020145014 -0.060888156
0000e0 7e 37 df 3d e4 56 44 3d 66 d9 b3 bd 9e a4 85 bd
       0.10899256 0.047934428 -0.087817 -0.06525539
0000f0 27 04 25 3e df 2a 35 3e 9e 46 07 be fc 40 31 3d
       0.16114865 0.17692135 -0.13210532 0.043274865
000100 3b e5 3f 3e d6 bd a4 bd 89 03 11 3e 9e 57 25 bf
       0.18739788 -0.08044021 0.14161505 -0.6458682
000110 58 1f 09 be 8a eb 99 3f 0f 1d af 3e 43 52 79 3e
       -0.13390863 1.2025006 0.34201857 0.24347787
000120 96 e0 8a bd 2e e4 aa bd 0e 6e 20 3f 2f cc b8 3d
       -0.067811176 -0.08344303 0.6266793 0.0902332
000130 be 38 5f 3f ee 5e c8 3c 25 ee e6 bd b6 19 a2 3d
       0.87195957 0.024459329 -0.11275891 0.0791506
000140 b2 41 8c 3d 08 b2 1e be a0 8e e6 3b da 28 bf 3d
       0.06848468 -0.15497601 0.007036045 0.09333964
000150 29 29 00 3e b0 be 01 be 98 36 7d bd f6 33 81 3d
       0.12515701 -0.12670398 -0.061819643 0.06308739
000160 00 58 41 bb 27 a7 3b 3f d0 90 58 bd 7a 46 20 be
       -0.0029501915 0.7330193 -0.05287248 -0.15651885
000170 ca fe 10 be 31 97 2b 3e c5 02 d1 bd 5c 2f 60 bd
       -0.14159694 0.16756894 -0.10205606 -0.054732665
000180 ea 00 e6 3d 5e fd 9c 3d ca bb c8 3d 92 df fa 3d
       0.11230643 0.076655135 0.09801443 0.12249674
000190 b2 18 76 be 32 b7 18 be 73 f4 34 3e bb 13 fe bd
       -0.24032858 -0.14913633 0.17671375 -0.12406107
0001a0 70 a0 9b 3e ac cd b0 3e a5 2b 03 be e2 c5 a1 bd
       0.30395842 0.34531915 -0.12809618 -0.07899071
0001b0 40 bb 16 bd e6 1e c4 3d b0 b4 54 be 18 3b 90 be
       -0.03679967 0.09576206 -0.20772052 -0.28170085
0001c0 d1 93 75 3d 8a 7e b3 3c 00 07 52 bd ca ca a6 bd
       0.05995542 0.021910924 -0.051276207 -0.08144148
0001d0 17 9c d2 bd 21 47 28 3b 19 59 8f be a1 18 50 be
       -0.10283678 0.0025677162 -0.27997664 -0.20321895
0001e0 02 1e 0b be 8a 14 e3 3d db 12 30 3d a3 c0 5e bd
       -0.13585666 0.11087902 0.042986732 -0.05438293
0001f0 cd 6d e6 bd 24 21 14 be 47 3b 1b 3e 16 8d 75 bc
       -0.112514116 -0.14465767 0.15159331 -0.014987251
000200 68 f1 f6 3c e9 59 ed bd 5b e7 13 3e aa 88 57 be
       0.030144408 -0.115894146 0.14443724 -0.21048227
000210 ac 9d 21 3d 10 18 95 3c c4 98 2a 3d 06 de 32 be
       0.03945701 0.01819995 0.041649595 -0.17467508
000220 50 9c 7f bc c4 19 11 3d 65 9c 26 3e b9 3e 30 3e
       -0.015601233 0.035424963 0.16270597 0.17211427
000230 1e cf a4 3d a5 0d 2a 3e b6 88 dd 3d 79 1a 2d 3e
       0.08047317 0.16606767 0.10817091 0.1690463
000240 ac 24 16 bd 39 2a 55 3e b2 a7 51 be 8a 60 95 bd
       -0.036656067 0.20816888 -0.20474127 -0.07293804
000250 9e 29 c7 3d 3e f4 be 3d 80 21 82 3c 93 8e 31 3e
       0.09724735 0.09323929 0.015885115 0.17339544
000260 bd c9 45 be d0 54 f3 bc f7 53 23 3e 6e 0c ac 3d
       -0.19315238 -0.029703528 0.15949999 0.08400808
000270 20 6e 34 bc e0 64 fa 3b e5 95 0e 3e 37 cd 56 3e
       -0.011012584 0.00764142 0.13924368 0.20976721
000280 04 f1 10 3d 18 83 5a bd c8 10 91 3c b0 bd c0 bd
       0.0353861 -0.053347677 0.017708197 -0.0941118
000290 2a 32 bf 3d e2 4b 93 bd ad 81 c5 bd 7f 09 2d 3e
       0.0933574 -0.07192208 -0.09643874 0.16898154
0002a0 66 7b 1c be d6 72 b2 3d b0 e8 61 bd 77 e9 3e 3e
       -0.15281448 0.087133095 -0.05515355 0.18643747
0002b0 25 75 d7 bd c7 8e 1e 3e 7b 34 1f be c0 56 89 bd
       -0.105203904 0.15484153 -0.15547363 -0.067059994
0002c0 43 8b c9 bd 07 4b 42 3e 87 05 e8 bd 8a e4 51 be
       -0.09841015 0.18973933 -0.11329179 -0.20497337
0002d0 79 46 13 3e 85 db 03 3e a0 b1 dd bc 88 1c cd 3c
       0.14382352 0.12876709 -0.027062237 0.025038019
0002e0 36 d0 f8 3d b2 ec 05 be 80 49 25 3b 2e 1c 93 bd
       0.12149088 -0.13078573 0.0025220811 -0.07183109
0002f0 c0 20 50 bd 1a 8d ec 3d a6 ca 8e bd 34 5b 35 3d
       -0.050812483 0.115503505 -0.06972246 0.04427643
000300 b9 d9 59 be b7 e9 f3 bd 17 b0 23 3e e1 d1 c9 bf
       -0.21274461 -0.11909812 0.15985142 -1.5767175
000310 c7 b0 fc bc d7 0b db be 19 2d f2 3e 2e 9c 95 3d
       -0.030846013 -0.4278247 0.47300032 0.073051795
000320 b5 63 5a 3e 96 cd a6 bd 2f 5f 9d 3f c4 a7 7f 3e
       0.21327098 -0.08144681 1.2294673 0.24966341
000330 77 65 eb 3d a5 ec 18 3f 18 25 97 bf f8 99 e0 bd
       0.11493962 0.5973609 -1.1808195 -0.10966867
000340 88 b1 87 3c 63 7b ef bd f1 68 4b be d2 9f e5 3d
       0.016564146 -0.11693456 -0.1986425 0.11212124
000350 e0 45 87 3c 1a cb 17 be 05 6c 34 3e 13 30 32 3e
       0.016512811 -0.14823571 0.17619331 0.17401151
000360 b0 91 a3 3c 5f 9a dc bf 4b 39 43 3e 66 f0 f3 3d
       0.01996693 -1.723461 0.19064824 0.11911087
000370 48 db a5 3c d7 eb 39 3e d5 8c de bd 74 5e 48 3d
       0.020246163 0.18156372 -0.10866705 0.048918203
000380 30 e0 03 be 70 3d 15 bd b0 1c 1b bc b6 1d d1 3d
       -0.1287849 -0.036435544 -0.009467289 0.10210745
000390 e5 2d ba 3d 7f 6e 48 be 14 4a 7d 3d 28 f1 16 bd
       0.09090785 -0.19573401 0.061838225 -0.03685108
0003a0 8c fc 5c be 82 5c 06 3f 0e aa 06 bd bc 0c 9d bd
       -0.21580714 0.52484906 -0.03287702 -0.076684445
0003b0 60 5b bc bd 08 d2 6f bd 38 d5 ab bc 67 b4 f5 3d
       -0.09197116 -0.05854991 -0.020975694 0.119973
0003c0 48 96 d3 bc 0a 87 da 3c 9c d2 55 3d c6 de 07 be
       -0.025828496 0.02667572 0.052202806 -0.13268575
0003d0 f8 45 3e be 22 d6 07 3b 1f bd a6 3c 52 97 c9 be
       -0.18581378 0.0020726998 0.020353852 -0.3937326
0003e0 80 32 c4 3c 38 9d 28 be 60 be c8 3d 41 14 13 bd
       0.023949862 -0.16466224 0.09801936 -0.035907988
0003f0 61 46 43 3d 73 37 22 3e 17 ab 04 3e 76 ff 6e 3c
       0.04767454 0.15841465 0.1295589 0.014587274

message_passing.0.linear_dst.weight f4 [64, 64]
000000 5e 33 53 be 40 35 b6 bd 0c df 58 bd bd 59 32 c0
       -0.20625064 -0.088968754 -0.05294709 -2.7867272
000010 d0 4f 4c bf 2c 02 fc 3f a5 cb da be 68 97 6d 3f
       -0.79809284 1.9688163 -0.42733493 0.9280915
000020 a0 9d 49 3c b4 7b 4f 3d 16 b1 b6 bf a7 cf db 3f
       0.012305647 0.050655082 -1.4272792 1.7172745
000030 4a ca 03 3f 13 7f 82 3e d1 4e e7 be 5e 2e 39 be
       0.51480544 0.25487575 -0.4517732 -0.18084094
000040 69 9e 22 be b1 05 2b 3e 25 66 50 3e 5e 25 d5 3d
       -0.15880741 0.1670139 0.20351465 0.10407518
000050 cf 21 5b 3e f4 da fb bd 1c ed 51 3d 95 23 47 3e
       0.21399616 -0.12297621 0.051251516 0.19447167
000060 10 f9 da bc 49 12 19 3f 53 83 0a 3e bf 51 04 3e
       -0.02673009 0.59793526 0.13526659 0.12921809
000070 22 6c ef 3d b6 68 d0 bd f1 b6 2d 3e 30 80 d0 bc
       0.116905466 -0.10176222 0.16964318 -0.02545175
000080 df 00 16 3e 5b b8 5c 3e e4 85 4c 3d 50 17 98 bd
       0.1464877 0.21554701 0.049932376 -0.074263215
000090 af b2 7e 3f 90 38 14 40 de c0 86 3d 02 52 bc 3d
       0.994914 2.3159523 0.06579755 0.09195329
0000a0 ac 01 ab 3e ca b1 cc be 65 40 8a 3f 02 b5 a1 be
       0.33399713 -0.39979392 1.0800902 -0.3158341
0000b0 50 35 2b be f2 2b 92 bd 75 d4 fd bd 2d fa 80 bf
       -0.16719556 -0.07137288 -0.123940386 -1.0076348
0000c0 16 68 92 3e 5d b5 48 3d 68 f0 b5 3c 5d 54 37 3e
       0.28595036 0.049001087 0.022209361 0.17903276
0000d0 26 0b 8d 3d b3 07 60 be 8b 0e 6c 3c 45 5e 40 be
       0.06886892 -0.21877937 0.014407764 -0.18785961
0000e0 a7 8d 0a be f1 ac 57 be 92 fb 83 3f 07 be fe be
       -0.13530599 -0.21062066 1.0311148 -0.49754354
0000f0 7f 56 ee 3e 0c 30 41 3d c8 94 e9 3c 7f fa e6 bf
       0.46550366 0.04716496 0.028513327 -1.8045195
000100 98 28 2c bd 5e fd 11 be c0 2b 48 be 39 33 ee 3e
       -0.0420309 -0.14256808 -0.1954794 0.46523455
000110 65 d9 f6 3c ad 64 1c bf 76 fe 7c 3e d9 9d 89 3e
       0.030132959 -0.6109112 0.24706444 0.2687824
000120 5b 67 12 3e 3c 75 1c 3d af 99 3b 40 42 9b b3 3f
       0.1429724 0.03819774 2.931255 1.4031756
000130 b4 28 02 3f f6 ea d0 bd 12 a6 15 3f dd 99 e8 bd
       0.5084336 -0.10201065 0.5845653 -0.11357472
000140 e6 ac 00 be a0 84 16 3c 1b 89 10 3e e8 4b 7f bd
       -0.12565956 0.009186894 0.14114802 -0.06232825
000150 00 92 f2 bd 8a 5b b3 3d 5d 66 58 3e 00 10 f6 39
       -0.118442535 0.08757694 0.21132798 0.00046932697
000160 57 0f 2e be de 20 60 bf 00 ac d2 39 cf 4c 53 3e
       -0.16998039 -0.8755015 0.0004018247 0.20634769
000170 be 93 4b be 29 c8 0c 3e 08 b7 ac bd 70 27 23 3c
       -0.19880578 0.1374823 -0.08433348 0.009958133
000180 7b c6 42 be 14 0b 90 bd 2c c1 3d bd e8 a9 8a bd
       -0.19021027 -0.07033363 -0.0463268 -0.06770688
000190 c9 8c 4d bd 5a 07 15 bf 86 66 be 3d e5 7a 52 be
       -0.05018309 -0.5821434 0.092968985 -0.20554693
0001a0 b0 da 81 3e 0d bb fc 3d ff ef 79 3d 27 3e da 3d
       0.25362158 0.123403646 0.061019894 0.10656386
0001b0 3c e0 48 bd 02 5f 84 3d 10 68 21 be 15 48 01 3f
       -0.04904197 0.06463434 -0.15762353 0.50500613
0001c0 53 4d 57 3d 72 48 b5 3d 49 ed 24 3e fc 82 4b be
       0.052563976 0.088517085 0.16106142 -0.19874185
0001d0 b0 e6 49 bc a6 23 df 3d 80 83 5c 3e 08 d1 5c be
       -0.012323067 0.10895471 0.21534538 -0.21564114
0001e0 fa 87 f5 3d 54 d4 b0 bd 4a 09 62 be d7 d8 83 3f
       0.11988826 -0.086342484 -0.22073856 1.0300549
0001f0 c7 ae a0 be b6 70 a3 3d 69 f7 3a 3e 12 70 02 bf
       -0.31383345 0.07980482 0.18258442 -0.50952256
000200 bc 7a c3 bd 92 18 59 be cf 13 0c 3e 25 38 79 bf
       -0.09544894 -0.21200779 0.13679431 -0.97351295
000210 af 06 8c be 55 8e 22 3f 73 de 9b 3e dc 0f 26 3f
       -0.2734885 0.6349843 0.30443153 0.6486795
000220 ca c9 94 3d 6e b3 b2 3d 2c 8a 8e bf d0 2b cb 3f
       0.07265051 0.0872563 -1.1135917 1.5872746
000230 99 93 2a bf c6 a9 a9 be ba a5 03 be 41 83 40 3e
       -0.66631466 -0.3313734 -0.12856188 0.1880007
000240 4a 33 46 be 9a 4d 27 be b4 d3 03 3d c9 be dd bd
       -0.19355503 -0.16338196 0.032184318 -0.10827405
000250 6f 32 57 3e 32 7b 90 3d 83 08 54 3e 1a 6e e9 3d
       0.21015333 0.07054748 0.20706372 0.11397953
000260 00 c8 b9 bb 48 73 da 3d e3 44 0c 3e e8 df 42 bd
       -0.005669594 0.106665194 0.13698153 -0.047576815
000270 00 8d 8d bc 80 6e 3d 3c 45 1d 5c 3e 00 30 21 3b
       -0.017279148 0.01156199 0.2149554 0.002459526
000280 af 33 19 3e 60 c9 61 bd f0 54 2c bc e6 a7 f8 3d
       0.14961122 -0.055123687 -0.010518298 0.12141399
000290 1a 96 e1 be fd c4 a6 3e 62 0c b4 3d 04 d7 31 3d
       -0.4405983 0.32572165 0.08791424 0.043417946
0002a0 30 21 49 3e 92 52 56 3e 8f 9b 26 bf 93 b7 3e 3e
       0.19641566 0.20929936 -0.65081114 0.18624716
0002b0 45 ec f2 bd b1 57 01 3e 13 d6 25 be aa 3c 79 bf
       -0.11861471 0.12631108 -0.16194944 -0.9735819
0002c0 3a 1c 08 bf a9 3c 56 3e f8 66 bd 3c 36 eb e8 3d
       -0.5316807 0.20921578 0.023120388 0.11372988
0002d0 6a 75 03 be 4f 74 1c be 54 b1 03 bf cd 5a c4 3e
       -0.12837759 -0.15278743 -0.51442456 0.38350525
0002e0 80 31 a6 bc 39 cf 70 be 15 3a 2a 3e 29 e9 da bc
       -0.020287275 -0.23516549 0.16623719 -0.026722508
0002f0 5b 37 d2 bf 71 20 fa bd d9 5c 51 3e 04 73 48 3e
       -1.6423143 -0.12213219 0.20445575 0.19575125
000300 e2 f9 a9 3d 0f 0f 3e 3e 85 a2 23 be e5 b4 b5 3e
       0.082996145 0.18560432 -0.15979965 0.35489574
000310 aa 7a e3 3e b8 b3 6c 3f 7f 1e b7 3e 75 5e 3c bf
       0.44429523 0.9246173 0.35765454 -0.7358163
000320 0a cc e9 3d 49 4a 0b 3e 3f 92 ac 3f 30 e2 af bf
       0.114158705 0.13602556 1.3482131 -1.3740902
000330 4e 64 c5 3d 18 d4 15 be 52 3f 3f bf 5e 83 b2 3d
       0.09638272 -0.14631689 -0.74705994 0.087164626
000340 f6 43 59 be e8 59 94 3c 43 63 2f 3e c2 00 c6 3d
       -0.21217331 0.018109277 0.17127709 0.09668113
000350 4f 31 4b be f0 9d 7e bc a3 05 1a 3e 49 47 1c 3e
       -0.19843028 -0.015540585 0.15041213 0.15261568
000360 c1 2d 5a 3e 3b 8e 49 3d 24 36 3b bd f0 82 e0 bd
       0.21306516 0.049207907 -0.04570593 -0.10962474
000370 0c 1e 33 bd 08 0d 44 be e6 41 53 be 1b 48 3a 3e
       -0.043729827 -0.19145596 -0.20630607 0.18191569
000380 ac 1e 60 3d 57 24 ff bd 65 c7 44 3e a2 82 2b be
       0.05471675 -0.12458103 0.19216688 -0.16749051
000390 b8 49 bb 3e de d9 8e bf da f5 8c 3d 31 a4 22 3e
       0.3657968 -1.1160238 0.0688283 0.15882947
0003a0 83 7e ec 3b e4 c3 d1 3e 1f ef 33 be 42 60 44 3f
       0.00721723 0.40969765 -0.17571686 0.7670938
0003b0 90 b3 66 3c 34 66 17 bd a9 ac 30 3e 26 26 34 3f
       0.014080897 -0.036962703 0.17253365 0.7037071
0003c0 26 96 b7 3e 4f 22 0c 3e 66 56 f7 3d da 4c a4 bd
       0.35856742 0.13684963 0.12077026 -0.08022471
0003d0 41 9e 52 3e 54 df b0 3e 98 d6 6f 3f 6e 64 12 bf
       0.20568182 0.34545386 0.9368682 -0.57184494
0003e0 e8 8a b7 3c 74 88 9a 3d 4b 4c ba 3e 0f b9 91 3f
       0.022405103 0.075455576 0.36386332 1.13846
0003f0 4c 0c 37 bf e6 cf c2 3d c2 9c fe 3d 29 e5 9c bf
       -0.7150314 0.0951231 0.12432243 -1.2257434

message_passing.0.linear_mid1.weight f4 [64, 64]
000000 bf 13 18 3e f6 5c 9f 3d c0 06 6b 3b d4 e5 49 3f
       0.14851283 0.07781403 0.0035862178 0.78866315
000010 a7 7b bd 3d 40 24 c9 bf 09 34 b9 be d7 ad 87 bf
       0.092521004 -1.5714188 -0.36172512 -1.0599927
000020 34 fc ae bd 10 f7 ae 3c b7 9c f4 3e 77 bb 99 3e
       -0.08544198 0.021358043 0.47775814 0.30025837
000030 35 74 13 3f 6b 17 06 be 1b 75 33 3f e6 88 d7 bd
       0.5759919 -0.13094871 0.70100564 -0.10524158
000040 b0 c6 03 bd 9b ea 05 3e ef b1 5a 3e d0 14 7b bc
       -0.032171905 0.13077776 0.21356939 -0.015324786
000050 81 50 2d be cb ec 29 3e 00 df 10 3b a8 6c eb bd
       -0.16925241 0.16594236 0.0022105575 -0.11495334
000060 02 cc 81 3d 60 2d 52 be ac 55 f4 bd 5d d2 03 3e
       0.063377395 -0.20525122 -0.11930403 0.12873216
000070 04 26 6c bd ee 2f cf 3d 80 8f 01 3d f8 17 af bc
       -0.057653442 0.10116564 0.031630993 -0.021373734
000080 32 ce cf bd 8f 8e 49 3e 9f bf 36 3e 21 a8 54 3e
       -0.101467505 0.19683288 0.17846535 0.20767261
000090 3c 12 f0 bd 04 63 4f 3e 94 fc 47 bd 68 dc f3 3c
       -0.11722228 0.20252615 -0.04882486 0.029768184
0000a0 a7 4e 9e bf 81 83 56 3d 1f a4 db 3e 85 fe bf be
       -1.2367753 0.052371506 0.42898652 -0.3749887
0000b0 7f f0 22 3e 62 31 af bd c0 ad 6c bc 33 7f b7 bd
       0.15912054 -0.08554341 -0.014445722 -0.08959808
0000c0 db 24 e2 3e 11 46 e3 be d0 5d 7b 3c 14 6d 70 bd
       0.44168743 -0.44389394 0.015342191 -0.058697775
0000d0 e4 ff 0a 3d 78 68 0f bc c8 19 a2 3f 3a 20 df bb
       0.033935443 -0.008752935 1.2664118 -0.0068092616
0000e0 3a ce 3e be 3f 5e 43 3e de ca 41 be f9 0e d1 3e
       -0.18633357 0.19078921 -0.18925044 0.40831736
0000f0 44 fb 0b 3e f0 4b a5 bd 10 e8 70 bc 06 f8 22 bf
       0.13670069 -0.080711246 -0.0147037655 -0.63659704
000100 76 f2 eb 3d 50 e8 49 bc 12 70 a0 3d 7d fa ad bf
       0.11520855 -0.012323454 0.07833876 -1.3592068
000110 21 b8 9d bd 46 83 13 3f 85 2b 8c bb 91 0c 4d 3f
       -0.077011354 0.5762218 -0.004277649 0.800973
000120 d6 13 3a be ec d7 38 3d b1 75 e7 3d b2 6d 26 3f
       -0.1817163 0.045127794 0.11301745 0.6501113
000130 5b 34 19 3f d7 14 0c bf a5 c9 03 3f 60 a5 7d bc
       0.59845513 -0.547193 0.5147956 -0.015481323
000140 5a 09 ef 3d d6 db cb 3d cd 50 48 be cd fb 0f 3e
       0.116717055 0.0995404 -0.19562073 0.14060898
000150 ee 1a ac 3d 80 a9 09 bb 20 79 92 bc c5 e5 26 be
       0.08403574 -0.002100557 -0.017880023 -0.16298588
000160 ab 28 50 be 43 7b 0f bc d8 29 59 bd 00 04 16 b9
       -0.20328014 -0.008757415 -0.05301842 -0.00014306605
000170 11 34 49 3e 8c 93 0d bd 80 ec c0 3a 4f d4 5b 3e
       0.19648768 -0.03456454 0.001471892 0.21467708
000180 72 9d 47 be 64 28 39 3d f0 21 82 bd d6 ed f3 3d
       -0.19493654 0.045204535 -0.06354129 0.11910598
000190 93 27 b5 bf 19 7f 1e 3f 41 21 54 3e cb a5 25 3e
       -1.4152702 0.61912686 0.2071581 0.16176526
0001a0 58 9c 23 3f a0 43 e5 be f9 f7 43 bd 03 fc 25 bd
       0.63910437 -0.44778156 -0.047843907 -0.04052354
0001b0 62 fa 57 be 6a 45 9b bd 19 76 0a 3e d8 13 e0 bd
       -0.21091607 -0.07581599 0.13521613 -0.10941285
0001c0 a0 53 ae 3c ba 36 a9 bd 76 ba 9a bd 69 0c 33 be
       0.02128011 -0.082623914 -0.07555096 -0.17485203
0001d0 b4 23 33 bd 99 66 ac bd 9d f3 21 3f 44 d2 39 3f
       -0.04373522 -0.084180064 0.6326235 0.72586465
0001e0 86 10 20 be c7 7b 9c 3e 4e 9a b7 be 06 3f 4b be
       -0.15631303 0.30563185 -0.35859913 -0.1984826
0001f0 59 4f a3 3f 80 33 c4 3a 44 20 8b bd 7d 2b 3c 3e
       1.275859 0.0014968961 -0.067932636 0.18375964
000200 b1 dc 54 be f9 47 53 3e 4b 20 24 3e f5 c2 ca bd
       -0.20787312 0.20632924 0.16027944 -0.09900466
000210 ab 01 51 3d ba 5d df 3d ad a4 de be a0 74 37 3f
       0.05102698 0.10906549 -0.43485013 0.7166233
000220 d6 d3 f6 3d 52 74 84 bd 9b 7c c4 3e 44 e8 ae bf
       0.12052123 -0.06467499 0.38376316 -1.3664632
000230 43 f6 3b 3f 2b 7d 06 3f 52 b4 45 3e 65 33 3c be
       0.7342264 0.5253474 0.19307068 -0.1837898
000240 44 6a 41 be 70 b2 6e bc 42 c2 32 be fc b1 0a 3d
       -0.18888193 -0.01456891 -0.17456916 0.033861145
000250 3e f3 58 be c4 ea 17 3d 3c 04 38 3d 20 05 c9 bb
       -0.2118654 0.037089124 0.044925913 -0.006134644
000260 30 cb 61 bd 1e 27 3d be 5a f6 f8 3d d3 63 d2 bd
       -0.055125415 -0.18471953 0.12156363 -0.10272946
000270 5f de 1a be 78 e9 f0 3c b5 a5 16 3e 5a 5a a4 3d
       -0.1512389 0.029408202 0.1471165 0.08025046
000280 60 d0 8f bc be 94 50 be 88 63 ef 3c 68 33 b5 bd
       -0.017555416 -0.2036924 0.029222265 -0.088476956
000290 d9 d5 0b bf 26 89 fe 3e a0 69 21 bc 24 fd 59 be
       -0.5462318 0.4971401 -0.009851843 -0.21287972
0002a0 21 60 a2 3e fd 44 8e bc a1 3e b4 3c 8f f0 6d 3a
       0.31713966 -0.01736688 0.02200252 0.00090766785
0002b0 97 5e 3f be c2 d7 0b be 0b e3 f5 bd b9 dc 19 bf
       -0.18688427 -0.13656524 -0.12006196 -0.6010242
0002c0 e6 8c 40 3d b8 9f 58 bd 3c bc 7a bd 70 9d 34 bc
       0.04700937 -0.052886695 -0.06121467 -0.011023864
0002d0 f4 d6 4d 3d 94 50 16 3b e1 8c 42 be c9 10 0e be
       0.050253823 0.0022936212 -0.18999054 -0.1387359
0002e0 d2 35 a7 3d 6d 8a 1a 3e 27 bf 64 be e2 05 40 be
       0.08164562 0.15091868 -0.22338544 -0.18752244
0002f0 da 1e 28 3e e0 0c 95 3b c4 b9 67 bd ea 8d 96 bf
       0.16418019 0.004548654 -0.056573644 -1.1762059
000300 4f 81 56 be 7c f4 15 be d3 a3 4a 3e 5c 72 2e be
       -0.20947765 -0.14644045 0.19789056 -0.17035812
000310 fe de 1f 3e 5c a0 ae 3e a8 4a 1f 3f 34 8a 95 be
       0.15612409 0.3410672 0.6222329 -0.29207003
000320 d0 59 a8 3c 9c 5f b2 bd 14 8a 93 be 84 a0 13 3f
       0.020550638 -0.08709642 -0.28816283 0.576668
000330 e1 35 c0 bf e1 0c b0 be 18 92 69 3f 5a ed 93 3d
       -1.5016443 -0.34384826 0.91238546 0.072230056
000340 1b a6 4e 3e 21 c0 1e be 9e 37 99 3d 80 94 b3 bb
       0.20180552 -0.15502979 0.07481311 -0.005480349
000350 a0 4a 64 bc 63 08 50 3e 45 24 56 3e f0 4f 68 3c
       -0.013933808 0.203157 0.20912273 0.014179215
000360 fc 89 31 3d 35 b7 94 be 8a 76 86 3d 80 23 4a bd
       0.043344483 -0.29046026 0.06565578 -0.04935026
000370 78 53 f9 bc 6a 18 e2 bd 53 0b 54 3e 91 47 24 be
       -0.030435309 -0.11039813 0.20707445 -0.16042925
000380 c0 c2 78 3b 22 d4 a4 3d 74 b4 c4 bd cc 38 56 3d
       0.0037957877 0.080482736 -0.09604731 0.05230026
000390 3e fd 5c bf f3 7a 02 be 3c e4 10 3d ce bb 84 3d
       -0.86323917 -0.12742214 0.03537391 0.064811334
0003a0 35 4e 57 3d 62 50 0d 3f 09 46 03 3f d5 47 14 3d
       0.05256482 0.5520078 0.5127874 0.036201317
0003b0 1d 7b 56 3e c4 44 59 be 0c 15 e2 bd f3 76 8d bf
       0.20945401 -0.21217638 -0.110391706 -1.1051925
0003c0 d4 0e 36 3f 48 5d f2 bd b3 b5 50 be 3c 2e 40 be
       0.71116376 -0.11834198 -0.20381813 -0.18767637
0003d0 ee 8b d2 3d 84 07 40 be ad b4 46 bf 3e 86 66 bf
       0.10280596 -0.18752867 -0.7761944 -0.9004859
0003e0 c0 2d 5a bc 82 e8 14 3f a3 af 11 be a8 d1 49 c0
       -0.013316572 0.5816728 -0.14227156 -3.1534214
0003f0 b2 11 5e 40 ac a2 b9 bd 4f df 07 3e fd d5 84 bf
       3.46983 -0.0906423 0.13268779 -1.0377804

message_passing.0.linear_mid2.weight f4 [64, 64]
000000 73 3b 59 3e fc cc 45 be 88 da d1 bc 1d 9f 87 3e
       0.21214084 -0.19316477 -0.0256169 0.2648858
000010 6f bd a6 bd 3b cf dc 3c e2 9d ac 3e 53 aa 2e bf
       -0.081416 0.026954284 0.33714205 -0.68228644
000020 37 29 20 be 10 24 c5 bd 73 e4 e9 3f d2 29 48 3f
       -0.15640722 -0.09626019 1.8272842 0.7818881
000030 b9 c7 5e 3e 90 c6 7b 3d 46 47 76 3f 1e d4 d0 3d
       0.21755876 0.06146866 0.96202505 0.10196708
000040 46 c8 29 be 11 e2 57 3e 1c b9 5e bd de 19 ce 3d
       -0.16580305 0.21082331 -0.054375753 0.100635275
000050 dc 4b 23 be 1e 42 48 be 20 ba 2f bc 48 1e b7 bd
       -0.15946907 -0.19556472 -0.010725528 -0.089413226
000060 66 ae 3c be 5a fc 1a 3e 6c 78 06 be b7 34 02 3e
       -0.18425903 0.15135327 -0.13131875 0.12715422
000070 42 f7 4a be 50 77 46 be c4 9e ee bd 3d d0 3b 3e
       -0.19820884 -0.19381452 -0.11651376 0.18341155
000080 ca 74 55 be 8b 18 0c 3e ec e4 7a 3d dd ef 3c be
       -0.20845333 0.13681237 0.061253473 -0.18450876
000090 10 60 0b 3f f8 f3 a1 3e 64 e4 4f 3d 20 4a e1 bd
       0.54443455 0.31631446 0.05075492 -0.11000466
0000a0 9f c6 6d 3e 1a d8 92 3e 9c 3c 0b 3e 2d 8e 37 be
       0.23220299 0.28680497 0.1359734 -0.1792533
0000b0 80 eb 52 bb 3c 4e 7a 3d 36 d3 e2 3d ad 35 36 bf
       -0.0032183826 0.061109766 0.110754415 -0.7117565
0000c0 28 de e7 3d 4b fd ad bd 12 89 8b 3d 6f c2 4d 3e
       0.1132167 -0.084955774 0.068132535 0.20093702
0000d0 89 61 53 be 79 09 c5 3c 54 39 84 3f f9 3a 18 3f
       -0.20642675 0.024052368 1.0329995 0.59464985
0000e0 99 4d 19 be ba 8a 77 3d bb 78 ad be fc b1 26 3e
       -0.14971007 0.060435034 -0.33881173 0.16278833
0000f0 90 ac 6e 3c f6 0d 18 be c1 79 37 3e fc 41 6a bf
       0.014567509 -0.14849076 0.17917539 -0.91506934
000100 30 79 87 3c 18 e5 6e bd 2b bb 00 3e 17 a0 ba 3e
       0.016537279 -0.05832395 0.12571399 0.36450264
000110 7c 6b ee ba 58 4d 3a 3e 97 77 e1 3d f9 db 60 bf
       -0.0018189992 0.18193567 0.11009138 -0.8783565
000120 35 43 48 3e 2d 6e 03 be e4 ba 6a 3e 00 57 32 3f
       0.19556887 -0.12834997 0.22922856 0.69664
000130 d9 1e 3d 3f 44 fe de be d9 55 90 bf d2 d1 9c 3d
       0.73875195 -0.43553364 -1.1276199 0.076572075
000140 70 bd 17 bc ef 2c 0f 3e 4c af 52 be 67 02 54 3e
       -0.009261474 0.13981985 -0.20574683 0.20704041
000150 a5 ff 4c be 6c ed 40 be 00 10 84 3a 00 69 bd ba
       -0.20019396 -0.1884057 0.0010075569 -0.0014450848
000160 ca c6 9c 3d 24 11 bb 3c a9 58 17 3e 8f ad 24 3e
       0.076551035 0.022835322 0.14779915 0.16081832
000170 44 ad 85 bd a5 c7 46 be 30 89 25 bd d8 7c ff 3c
       -0.065271884 -0.19412096 -0.040414035 0.03118746
000180 40 5d b2 bc 86 26 ed 3d 8a f1 cd 3d 5a 0c 88 3d
       -0.02177298 0.115796134 0.100558355 0.06642981
000190 2d 05 94 bf 8f 32 a8 3f 9f 1c 52 be 76 5e ce 3d
       -1.156408 1.3140429 -0.2051873 0.10076611
0001a0 4e e6 ef be 50 04 78 3d 5e db 5d be fc 02 3e 3e
       -0.46855396 0.060550988 -0.21665713 0.18555826
0001b0 93 16 12 3e 80 d4 96 3a dd 29 c7 bd 0d 90 ed 3e
       0.14266424 0.0011507422 -0.09724782 0.46398965
0001c0 d2 25 60 be b2 a3 f9 3d 5e d3 b0 bd 74 77 53 3d
       -0.21889427 0.121894255 -0.08634065 0.05162759
0001d0 50 de 38 3c ab ce b2 3d 13 2b 8d be 17 aa d0 bd
       0.011283472 0.08730825 -0.27571926 -0.10188692
0001e0 90 97 e2 3c 42 c6 07 bf 90 ae 62 3e b5 12 8d 3e
       0.027660161 -0.5303689 0.22136903 0.27553335
0001f0 90 e9 38 be 6a ae 85 bd 22 87 f5 3d 6b 62 c7 3d
       -0.18057847 -0.065274075 0.11988665 0.097355686
000200 f4 87 42 3d 54 53 96 bd 24 b9 69 3d 3a 95 e0 3d
       0.047492936 -0.07340112 0.05706133 0.10965963
000210 db d4 b9 3d c3 05 6b bf e3 65 bb be f2 a4 c3 bf
       0.09073802 -0.91805667 -0.3660117 -1.5284712
000220 60 d6 8d bc 58 9e df 3c 0b 9e 78 bd f8 eb 31 bd
       -0.017314136 0.027297184 -0.060697597 -0.043437928
000230 35 7e b6 be 88 29 94 be 2f d1 7d 3f ad bf 19 3e
       -0.35643163 -0.28937936 0.99147314 0.15014525
000240 0e ae 81 3d 3e b4 bc 3d d3 74 1d 3e 8a f2 0c be
       0.063320264 0.09214066 0.15376596 -0.13764396
000250 3f 43 45 be e4 64 69 3d ba 68 9a 3d bb c3 4f 3e
       -0.19263934 0.056980982 0.07539506 0.20289509
000260 90 2c d1 bc 03 88 85 be 19 b2 0a 3e d8 a6 b7 3c
       -0.025533944 -0.2608033 0.13544501 0.022418424
000270 5f 98 35 be f3 c2 2c be 98 63 7e bd 5f e9 5a 3e
       -0.17733906 -0.16871242 -0.0621067 0.21378087
000280 0d 4f c2 bd b3 f2 c9 bd 58 c6 a6 bc 2e 76 ad bd
       -0.09487734 -0.09860744 -0.02035825 -0.084698066
000290 ad 67 53 bf a4 1b 71 3f ce b2 aa bd 4c e3 51 3d
       -0.8258007 0.941828 -0.083348855 0.051242158
0002a0 a7 ab 5b bd c2 bc fa bd ca 32 66 3e 7a 92 7a 3c
       -0.053630497 -0.12243034 0.22480312 0.015293712
0002b0 5f 29 d3 bd a5 29 2f 3e a1 93 d9 bd 1f 59 1a 3f
       -0.10310625 0.1710573 -0.10623861 0.6029224
0002c0 01 5f 16 3e c0 38 9c bd a0 89 9a bd db d8 43 3e
       0.14684679 -0.07628012 -0.07545781 0.19125693
0002d0 94 53 2c 3d 3d 9e 1e bc e8 9a 07 bf f2 02 2b bf
       0.042071894 -0.009681282 -0.52970743 -0.6680137
0002e0 d1 ca 48 3e fc 13 b8 be d5 5a 49 3f ad 3c c6 bd
       0.19608618 -0.35952747 0.78654224 -0.09679542
0002f0 31 10 2a 3f da 79 a6 bd 51 af 38 be ef db f1 bf
       0.66430956 -0.0812871 -0.18035628 -1.8895243
000300 4e e2 d7 3d c9 d2 4d be 29 fb 46 be 6a 7a 4c 40
       0.10541211 -0.2009994 -0.19431747 3.1949716
000310 4d 77 01 3e 5b 47 e7 3e 8d 33 57 bf 57 4a 87 3f
       0.12643166 0.45171627 -0.84063035 1.0569562
000320 d8 15 23 bd fc 9a 03 3d c9 12 8e bf be 49 57 3e
       -0.039815754 0.032130226 -1.1099483 0.21024224
000330 58 b5 a3 be 95 0f 6f be ed 0c 51 3e cb 10 27 be
       -0.31974292 -0.23345788 0.20415087 -0.16315
000340 a0 b4 f9 3b 8a be c8 3d 00 c7 63 bc fd 11 40 3e
       0.007620409 0.098019674 -0.013902426 0.18756862
000350 d2 54 25 be 3d 57 fe bd 59 dc 4b 3e e3 9b 4c be
       -0.16145638 -0.12418983 0.19908275 -0.19981341
000360 1c 19 bc bd 5a 72 2c bd 10 10 35 be 89 0d d8 bd
       -0.09184477 -0.04210124 -0.17681909 -0.105494566
000370 27 31 36 3e 57 df 12 3e 20 bd 6a bd 28 45 14 bd
       0.17792188 0.1434301 -0.05730927 -0.036198765
000380 9c 69 37 be 74 8f 68 3d 36 ea ed 3d 20 29 78 bc
       -0.1791138 0.056777433 0.11616938 -0.015146524
000390 02 0a dd 3d 9f 83 a3 bf 8a 29 9f 3d 61 b0 08 3e
       0.107929245 -1.2774543 0.07771595 0.13348533
0003a0 f9 c2 7d 3d a5 6e d3 bf df dc 9d 3e 37 01 63 be
       0.06195352 -1.6518141 0.30832574 -0.22168432
0003b0 53 10 16 3e 69 86 01 3e c0 f7 cb 3b c5 7a 93 3e
       0.14654665 0.1264893 0.0062246025 0.28804603
0003c0 c6 a2 47 3e a0 d0 72 be 02 47 fe 3d b1 89 43 3e
       0.19495687 -0.23712397 0.124158874 0.19095494
0003d0 ac 4b 0b 3d d6 60 19 3d d4 f9 59 bf ae 93 69 3f
       0.034007713 0.037445866 -0.8514683 0.91240966
0003e0 77 a4 3e 3e a8 ad 9f 3e 7d 63 9c bd 95 b7 b5 be
       0.18617426 0.31187177 -0.076361634 -0.35491624
0003f0 67 85 11 bf f0 4b db bc 57 38 ed bd 98 48 f9 bd
       -0.5684418 -0.026769608 -0.115830116 -0.12172049

message_passing.0.linear_pos_bonded.weight f4 [64, 2]
000000 76 46 94 3d ce 35 b9 be 76 24 da 3e 2b 90 b9 be
       0.07240002 -0.36173862 0.42605942 -0.36242804
000010 8a 55 e1 bd 14 0a 58 bd 01 8d 52 3d 39 71 43 3f
       -0.110026434 -0.052743986 0.051404003 0.7634464
000020 2e 1f 1d 3f 8c 20 08 40 6b 3b 50 3e e0 20 1a be
       0.613757 2.1269865 0.20335166 -0.15051603
000030 09 ec fe be f1 4e 74 bf 2d 81 1f bf 9d 0c e2 bf
       -0.49789456 -0.95432955 -0.6230648 -1.7660099
000040 85 99 8a be d0 91 ec be 29 59 21 be ed 93 09 be
       -0.2707025 -0.46204996 -0.15756668 -0.13435335
000050 03 7c d8 be ec ce 06 bf 29 c2 3e be ad ed a7 bd
       -0.42282113 -0.5265949 -0.18628754 -0.0819963
000060 0f 1a 0b be 0c a9 ba be e4 39 cf be 30 b0 85 be
       -0.1358416 -0.36457098 -0.40473855 -0.26110983
000070 02 3f 83 3e 11 bb db 3e a1 1b eb 3e 35 4f 1f 3e
       0.2563401 0.42916158 0.45919517 0.15557559
000080 9b 9b 5a 3e f0 c5 de 3e 8e ba 23 bf 75 58 f7 be
       0.21348421 0.4351039 -0.63956535 -0.48309675
000090 4b 90 73 3f 41 0e fb 3e a2 5b c6 3d 2d dc c9 3e
       0.9514205 0.49034312 0.09685446 0.39425793
0000a0 cd 6d 2a bf 15 41 3a bf ef 3a c1 3e 77 02 35 3f
       -0.6657379 -0.7275556 0.37740275 0.70706886
0000b0 71 72 58 3f 10 02 04 3f 91 56 e7 be 48 fc ee be
       0.84549624 0.5156565 -0.45183232 -0.4667685
0000c0 90 0f 8d 3f 7d a4 87 3f 46 41 ff 3e d5 47 db bd
       1.1020374 1.0597073 0.49854487 -0.1070706
0000d0 2b aa 97 3f 05 29 87 3f 4e b3 91 be 7f c8 08 bf
       1.1848806 1.0559393 -0.2845711 -0.5343093
0000e0 c6 eb 90 bf 6f 62 97 bf 09 e8 5b bf 6d e2 0e bf
       -1.1321952 -1.1826915 -0.8590093 -0.5581425
0000f0 0e e7 53 bf 89 c3 e5 be 29 9c a4 be fc ed 14 bf
       -0.82774436 -0.44875744 -0.3215039 -0.58175635
000100 77 f4 91 bf bd d0 98 bf 00 c8 72 be e8 bd d8 be
       -1.140273 -1.1938702 -0.23709106 -0.42332387
000110 69 0a 5d bd 94 78 5b 3f c5 4b 09 be d9 5f 12 3f
       -0.053965006 0.8573086 -0.1340781 0.571775
000120 5a ef 1c c0 aa 4f 1f c0 e2 56 0b bf d8 25 17 bf
       -2.4521089 -2.4892373 -0.5442945 -0.5904212
000130 f0 24 12 40 1c fd 44 40 f9 e4 ac be a3 50 7f 3d
       2.2835045 3.0779486 -0.33768442 0.06233276
000140 0e 53 6f c0 77 99 4c c0 bf 4a 27 3f ad 1a 0e 3f
       -3.7394443 -3.1968668 0.6534843 0.55509454
000150 df c0 00 c0 45 54 9a bf 42 03 18 3f 1c d3 0a 3e
       -2.011772 -1.2056967 0.5937997 0.13557094
000160 04 ed 04 c0 a5 7a 9e bf e5 ef 93 3e a9 9e 07 bf
       -2.0769663 -1.2381178 0.28893963 -0.5297647
000170 ea 02 08 40 3a 48 0d 40 15 5b 22 3f e5 8b c6 3e
       2.1251779 2.2075334 0.6342023 0.38778606
000180 a7 94 fd 3f b8 26 ea 3f 44 fb 02 bf 8d 31 68 bf
       1.981099 1.8293066 -0.5116465 -0.9070061
000190 f4 73 7c bf 8f 07 8c bf 3f ef 6c bd fd 62 fa 3d
       -0.9861443 -1.0939807 -0.05784535 0.12225912
0001a0 93 53 0d 40 f3 63 03 40 eb e9 d7 be db b4 6f be
       2.208226 2.0529754 -0.42170653 -0.23408835
0001b0 ff 01 7a 40 df 95 84 40 b4 9c 5c bd f2 e0 8c be
       3.9063718 4.143295 -0.05386038 -0.2751537
0001c0 69 e4 db 3f c0 4a b2 3f e5 db 7b 3f ab 72 24 3f
       1.717908 1.3929062 0.9838241 0.6423747
0001d0 a7 81 bd be 71 b3 d3 be 90 4a 47 bf d9 d6 96 be
       -0.3701298 -0.4134784 -0.7784815 -0.2946079
0001e0 6d 8f d1 3d 39 41 22 3f e0 66 02 bf 51 fb 08 be
       0.102324344 0.6338077 -0.50938225 -0.1337712
0001f0 63 d3 68 3f 45 47 44 3f 19 73 a3 bf cf a5 11 bf
       0.9094755 0.7667125 -1.27695 -0.5689363

message_passing.0.linear_pos_bonded.bias f4 [64]
000000 30 ef 96 3e 4b 99 93 3e 0c ad 5d be ee 7a ab bf
       0.2947936 0.2882789 -0.21648043 -1.339689
000010 8b 11 8a bf 97 91 34 3d 6c b8 42 bd 56 6f 5b 3f
       -1.0786604 0.044084158 -0.04753916 0.8571676
000020 3c a3 b3 be 44 79 14 3d a2 03 8a be a7 f6 1e 3d
       -0.35085475 0.03624846 -0.26955897 0.038809445
000030 29 fd 10 3f cc 48 bb bd fa 1b 24 3f fc 75 11 3f
       0.5663629 -0.09144744 0.6410519 0.56820655
000040 2e 4a 9d be 49 e5 93 bf b8 97 58 3f 57 bd 17 3e
       -0.30720657 -1.1554347 0.84606504 0.14818321
000050 e2 9d 8a be 44 85 e5 3e 92 e5 87 3f cc cb 30 bf
       -0.2707358 0.44828236 1.0616934 -0.6906097
000060 38 e6 8f 3f c3 b5 a1 3f f3 0e 61 3f 3b a8 a9 3e
       1.1242132 1.2633594 0.87913436 0.33136162
000070 44 b5 36 bf 12 07 81 bf e4 21 03 bf b5 a9 9d be
       -0.7137034 -1.0080283 -0.5122359 -0.3079354
000080 1c e9 53 bf 15 fb 8a 3c af 5a 7e bf 80 9a 33 bf
       -0.8277757 0.016965428 -0.9935712 -0.70157623
000090 c6 75 05 c0 ea 8b c6 be 21 bc f2 3f cf 5d d8 be
       -2.0853133 -0.3877862 1.8963662 -0.4225907
0000a0 e0 6d 84 c0 a1 2b 35 3f c1 06 f9 bf d3 19 f8 3e
       -4.1384125 0.707697 -1.9455186 0.48457202
0000b0 3f ec 01 c0 b5 c0 87 3f 97 a6 ed 3f c1 1b 3d 3f
       -2.0300443 1.0605685 1.8566464 0.73870474
0000c0 b0 6b f7 3f a3 55 5a bf f3 da 88 bf 18 9d ed be
       1.9329739 -0.8528692 -1.0691818 -0.46408916
0000d0 10 1b 02 40 36 85 d2 bf 70 af 85 40 bc 23 20 bd
       2.0329018 -1.6446903 4.1776657 -0.03909658
0000e0 c2 77 f1 3f a8 bd 4e 3f c1 ee 1f bf 8b 25 39 bf
       1.8864672 0.8075814 -0.62473685 -0.7232291
0000f0 b9 3a 1c be d7 1e 69 bf d6 ba cc 3f dc ee da bf
       -0.15256776 -0.9106268 1.5994518 -1.7104144

message_passing.0.linear_pos_unbonded1.weight f4 [64, 3]
000000 a5 83 87 3e 5f f8 53 3d bd 4b 9f be b0 fa 24 40
       0.26467624 0.051750537 -0.3111247 2.5778008
000010 df bf 9d 3d ba 91 80 3f 9b 3e 24 bc 26 09 15 be
       0.07702612 1.0044472 -0.010024692 -0.14554271
000020 be 52 06 3f 8d 38 50 40 5e 83 65 3f 5d b1 a0 3f
       0.52470005 3.2534516 0.89653575 1.2554127
000030 bd 9f 65 be 65 fd b6 bd 8f 90 af 3d 0c cd 3c 3f
       -0.22424217 -0.0893505 0.08572494 0.73750377
000040 c9 30 84 3e 4c ee 39 3e 47 89 0b 3f c8 24 84 3e
       0.2581847 0.1815731 0.54506344 0.25809312
000050 c3 c4 80 be 12 4e ad 3e 56 d5 c4 3e 53 27 36 3f
       -0.25150117 0.33848625 0.38444012 0.71153754
000060 5b 19 97 3f b4 7a 32 3f be 26 92 be 22 c6 9b 3f
       1.1804613 0.6971848 -0.28545183 1.216984
000070 52 58 ba 3f 06 7d 86 3e 47 f6 66 3f 12 66 11 bf
       1.4558203 0.2626726 0.9021954 -0.5679637
000080 ee 4b aa 3f f1 e6 64 40 be 9c 95 3f b6 9f 49 3f
       1.3304422 3.5765955 1.1688459 0.78759325
000090 cd 2b 24 3f ae db 45 3f 44 9a e2 be 82 67 30 40
       0.64129335 0.7728833 -0.4425832 2.7563176
0000a0 ad 90 b9 3f d3 91 3b 3f 9c db b2 3c fe 38 30 bf
       1.4497277 0.73269385 0.021833234 -0.68836963
0000b0 7e 3c f0 3f 54 67 04 40 9f 67 00 40 20 bb df 3e
       1.8768461 2.0688066 2.0063245 0.43697453
0000c0 7e bd 35 bf 4b cd 7f bf 46 3a 27 3f a3 8e ca bc
       -0.7099227 -0.9992263 0.65323293 -0.024726218
0000d0 e3 b0 f3 3e 77 ae 0d be 74 91 27 bf dc f9 1f bf
       0.4759589 -0.13836084 -0.6545632 -0.6249063
0000e0 59 4d fc bc ec f9 ba be 31 7d f4 be 8b ad 5f 3f
       -0.030798601 -0.365188 -0.47751763 0.8737418
0000f0 64 be 9b 3f 2a e8 15 3e f1 a0 c2 bd 37 27 8f 3e
       1.2167478 0.14639345 -0.095033534 0.27959606
000100 0a 63 ba bd d5 f5 88 3e 98 e6 96 bf 82 05 52 bf
       -0.091009215 0.26750055 -1.1789122 -0.82039654
000110 da fa 27 3e f9 36 25 bf 10 09 51 bf d7 7e 8f 3c
       0.16404286 -0.64537007 -0.81654453 0.017516537
000120 21 a6 89 c0 bf bf 3a c0 cf 7f b4 bf 6d e2 6a 3f
       -4.3015294 -2.9179533 -1.4101504 0.9175175
000130 6a 8d e1 3f 42 b7 85 be 98 e0 5a 40 a8 9d 1d 40
       1.7621281 -0.26116377 3.419958 2.4627476
000140 67 af 9a bf d5 a7 dd bc 25 0b 4a 3e bd 0d 38 be
       -1.2084779 -0.027057568 0.19730814 -0.1797399
000150 73 b6 6f bf 15 fe 3f be 8e 75 8b bf 1c 88 fa 3f
       -0.9363777 -0.18749268 -1.089525 1.9572787
000160 0a 14 36 3f d2 0f 34 3f 70 15 10 c0 76 b6 22 bf
       0.7112433 0.7033664 -2.2513084 -0.63559663
000170 d7 d0 86 3f 6d 7a b6 be f8 c9 b2 be cf 8e 86 bd
       1.0532483 -0.35640278 -0.34919715 -0.06570207
000180 80 f3 05 40 a3 c1 b8 3f c0 a9 eb bf 02 4f 9c 3f
       2.092987 1.4434093 -1.8411179 1.2211611
000190 53 dd d3 3f 66 5c 36 be 42 30 a5 3f 79 a8 f2 3e
       1.6551918 -0.17808685 1.2905352 0.4739416
0001a0 73 15 0e 3f d3 8b 42 3d 7a 03 8c bf f0 a5 d9 3e
       0.5550148 0.047496628 -1.0938561 0.42509413
0001b0 d5 0b f1 be 46 5c 7f be 76 6a a2 3e 91 49 1f bf
       -0.4707934 -0.24937543 0.31721848 -0.6222163
0001c0 f2 b6 00 c0 ba 24 70 be d3 f7 94 3f 2e bb b1 3d
       -2.011166 -0.2345151 1.163813 0.0867828
0001d0 41 8f a9 be c8 39 3a c0 9e 9d 4a c0 af fe 13 bf
       -0.33117107 -2.9097767 -3.1658702 -0.5781049
0001e0 e8 f6 d9 bf b7 ee ca be d3 06 f5 bd b3 8d 84 3e
       -1.7028475 -0.3963525 -0.11964192 0.25889358
0001f0 72 4a 31 3e d4 21 74 3d b6 e7 6a 3f 92 ea fb 3e
       0.17313555 0.059602574 0.9175981 0.492024
000200 41 c7 b0 3f 2b 8e 1a c0 79 6d d6 bf ff f3 8b bf
       1.3810807 -2.4149272 -1.6752158 -1.0933837
000210 4a 02 c7 bf dc 7a f1 be 8a fe 70 c0 d4 ac e5 bf
       -1.5547574 -0.47164047 -3.7655358 -1.7943368
000220 f9 30 a9 bf 85 c1 41 bf 3c b6 22 bf 48 9e bd bd
       -1.321807 -0.7568591 -0.6355932 -0.092587054
000230 9a d6 15 3e 60 1c 58 bf f9 f3 9b bf 84 a5 14 bf
       0.14632645 -0.84418297 -1.218383 -0.58065057
000240 5f 60 7c be a8 8a a3 3d d8 46 ee bf a6 8d c6 bf
       -0.24646138 0.07985431 -1.861537 -1.5511978
000250 9d 05 9b bf f7 a9 f1 3e 5e 88 d1 bf dd 9b 39 bf
       -1.2111088 0.47199985 -1.6369741 -0.72503453
000260 59 e5 96 3f 7b e5 d3 3f 62 70 23 40 ad 2a 63 3f
       1.1788741 1.6554407 2.5537343 0.88736993
000270 97 04 c7 3f 4f 74 1c 3f 60 56 1f c0 d1 8a 1b 40
       1.5548276 0.6111497 -2.489647 2.4303477
000280 7e d0 1a 40 a5 db 25 3f ec 32 47 3e e9 45 4d bd
       2.4189754 0.64788276 0.19453019 -0.0501155
000290 7a c7 32 3f ca 10 8e be e9 b9 b4 bf 4d 8e 42 3f
       0.6983563 -0.27747184 -1.4119235 0.75998384
0002a0 10 fc 3a 3f af de 97 bd dd 04 65 40 a5 4f 9a bf
       0.73040867 -0.074155204 3.5784218 -1.2055556
0002b0 29 31 2b bf a9 35 b0 bf 9d 12 86 3c 23 1d 50 be
       -0.6687189 -1.3766376 0.016366297 -0.20323615
0002c0 48 3c 11 c0 d8 9b f3 3e ac da 58 3e 43 fe 6f bf
       -2.2693043 0.47579837 0.21177167 -0.9374735
0002d0 1d de 11 3e 1c c6 06 3e af 29 86 bf d4 f1 e4 bf
       0.14244886 0.1316151 -1.0481471 -1.78863
0002e0 cd b6 e1 bf a6 de e6 be e3 1d 56 bf 1d c5 24 bf
       -1.7633911 -0.45091742 -0.83639354 -0.6436327
0002f0 91 fe 50 40 e9 d4 42 40 08 00 0a 40 c9 88 2b 3f
       3.2655375 3.044245 2.156252 0.6700559

message_passing.0.linear_pos_unbonded1.bias f4 [64]
000000 e5 b9 0c bf 56 91 96 3e b2 ec 79 3e 32 f1 54 3f
       -0.5497115 0.29407758 0.24406698 0.83180535
000010 d4 49 81 bd e1 48 57 3e 4e 0b 20 bd fd 8c 2d 3f
       -0.0631291 0.21023895 -0.03907328 0.67793256
000020 09 22 58 bf 06 3a 8f 3d 84 b9 6a 3f 1a d1 68 3d
       -0.84426934 0.06993489 0.91689324 0.05684004
000030 35 ee ed be 4b f6 58 3e 2b 94 ec 3f 21 90 87 bd
       -0.464708 0.21187703 1.8482717 -0.06619287
000040 05 f2 47 3f 84 eb c4 bb 5a aa a5 3e cf d3 72 3f
       0.7810367 -0.006009521 0.3235653 0.94854444
000050 b7 66 b7 be 73 c3 30 3e b3 a4 8b 3e b5 ca 97 3e
       -0.35820553 0.17262058 0.27274093 0.2964684
000060 bf 92 9c bf a2 50 a8 be 49 f1 a1 bf 9d 1a 99 3e
       -1.2232283 -0.32874018 -1.2651759 0.29903117
000070 71 d1 81 bf d2 e8 10 3f fe 53 50 3f 90 1c 6d bd
       -1.0142041 0.56605256 0.8137816 -0.057888567
000080 e3 eb cb bf da 9c 9c be d6 d5 7d bd 54 0f 17 3f
       -1.5931362 -0.30588418 -0.061971508 0.59007764
000090 7f 9d a3 3e 2f 20 21 bf 70 21 0d bf bd df 1a bf
       0.31956097 -0.62939733 -0.55129147 -0.6049765
0000a0 0b 45 bc 3d 74 13 fd bd 5f ef 98 3f 43 d0 3a bf
       0.091928564 -0.12357226 1.194805 -0.7297403
0000b0 36 44 87 c0 8d 78 e2 be 7b 30 36 3f 2f 5d 08 bf
       -4.2270765 -0.44232598 0.71167725 -0.53267187
0000c0 0c 62 17 c0 e4 26 17 3f 2d 38 cd 3f e7 a6 46 3f
       -2.3653593 0.5904372 1.6032768 0.7759842
0000d0 8f 54 42 c0 6c 3b b8 bc 34 fb db 3e f8 2f bd 3e
       -3.036411 -0.022489272 0.4296509 0.3695066
0000e0 e4 33 7c 40 3e ae 83 bf 55 56 33 c0 43 46 28 bf
       3.9406672 -1.028755 -2.8021443 -0.6573221
0000f0 42 2a b6 bf 2b ff 0d bf d0 ec 81 40 09 78 b5 3e
       -1.4231646 -0.5546748 4.060158 0.35443142
